QuarantineSports/Assets/Our_Models/conv_best.onnx (onnx, 250300 bytes, 6 tensors)

FULLY_CONNECTED_139/kernel:0 f4 [75, 4]
00000000: 4564 2abe d4c1 00be f508 16bd dd8a 17bd
00000010: 0bd5 293f 8315 cabd 9cb9 f6be 3998 ffbe
00000020: 2ba4 a33d b752 cdbe 82ad 85bd 1d25 583e
00000030: 880a 46bf bbab dc3d 29f0 793e f223 353e
00000040: d3a9 a5be 607f 42be ef0c 113f 04b4 b63b
00000050: 0ef3 3e3e e2ff 913e 0cde 3cbe 58cd 9b3e
00000060: 667c 94bd f617 8f3d e161 973b 6528 05bf
00000070: a852 9fbd d4ee 073e 0b98 cabe 2602 da3e
00000080: 9dd0 853e 5b52 a1be 2ab3 3f3e a4c7 81be
00000090: b7a4 22be 73e4 4f3e 361f f7bd f83b 443e
000000a0: eec6 d7be 6463 873e 132c 8a3e 69ba 873e
000000b0: 95d0 1e3e 496c c4be 7ab5 793d 34ce d6be
000000c0: 5132 53be 650b b5bb 9591 b53e f35f a9be
000000d0: 328d 373e 49bc 203e fbaf 8cbe f6bf 27bf
000000e0: e3f8 883e 152b 873e 391c d6be 6052 9fbd
000000f0: 62a2 24bf 36cd c33e 0c5a 07bf bb60 1b3f
00000100: b011 d8ba b9ba 5bbe 1087 c63e 89ec 4dbe
00000110: 0f13 623e 3e41 6b3d 03b8 bebe f651 c93e
00000120: d5aa 853e ac42 40bd 8c86 d2be 68fa ab3e
00000130: 18e1 223e 38a3 b5be c778 d03d b3d5 14bf
00000140: a46c 953e c3f2 36bd e051 a03c 7cd2 30bf
00000150: 9211 3abd ddb8 2c3e 9d07 863e 4de4 b43d
00000160: 28f3 4abe 145d d73c 12ff 3a3e 972a f0bc
00000170: 091c 8b3e 15cc 333d 8706 58be 08fe 4b3e
00000180: a1b0 963e bf95 7cbe 88bd 103e 72b1 a8be
00000190: cc22 62be 8098 39be 9d8b de3d a9fd 0b3e
000001a0: 7330 ba3e 3db2 923c 0d7c acbe a27e f33d
000001b0: 5ac9 9fbe c27c a8bd eb7d b03e 24e0 cebe
000001c0: c1d8 943c 8948 2bbd 411e 293d a45a 12bf
000001d0: 9b2f 273f fa74 96be e65c 1abe 71ca 5fbe
000001e0: a0ec c53e 888e bcbe 8aee d5be 4ab1 c4be
000001f0: 83b6 9f3d 7194 cebe 2c8d 9f3b 43b2 943e
00000200: b200 9e3e 2db1 83be d9a9 ad3d 9f57 a83d
00000210: 3aae e73d 9928 743e ec66 b03d abf4 a9be
00000220: 6373 803e ff5a b2be b306 86be 9200 88be
00000230: a6e7 5ebe edcd 1bbc 5c21 e13c da4c 3a3e
00000240: 1369 e3bd d3fc be3e dbeb 6cbe 813c 32be
00000250: 3ed6 8abd f4dc 143e ce4b 343e fc46 98bd
00000260: bcab 143d 45b9 dbbe e348 983e e93b 963e
00000270: cf2d 9f3e 834e 0cbf 861d 30be 27c1 1cbe
00000280: 22ff 3c3d 4452 173e 6211 233e f4b6 103e
00000290: e61f 3e3e 354e 7ebd ae7b a0be b0fa a53e
000002a0: 5063 99bd 6aa8 abbd aef2 4b3c 22ba 6f3e
000002b0: db70 b6bd 79a1 0dbd 2015 bd3e fd63 84be
000002c0: 38e5 993e 6267 a93d 9643 453e 684f 29bf
000002d0: 68b0 8d3e 6872 3fbe 2d07 943e d982 14bf
000002e0: 8573 1d3e c3f5 983c 1e61 ecbe 6328 c53e
000002f0: 78ed b63e 0d60 443e 4674 8abe ac57 4d3e
00000300: 8121 d13e 479d 343d 8680 debe 98ed a6be
00000310: 248d ac3e f127 883d 341a 27bf b506 a2be
00000320: 4955 5ebf bad0 983e 8f38 813e 2fe9 ca3e
00000330: 580e 473e 33eb a43d 3301 b1be fa09 413e
00000340: 1a0c a93d d22c a4be 8e30 0a3e ec66 1fbf
00000350: a038 5abe 535c 9e3e d07a 8d3d eb36 9d3d
00000360: f19e 96be 7408 1fbe 5218 163f 87ca 68be
00000370: 9921 9ebe c40e d5bd 2d31 cc3d 169c d6be
00000380: 28e4 21be 1c61 00be 2792 30be 4edd 9a3d
00000390: acb1 5abe 7555 973e a1c4 a8bd a9a3 c6be
000003a0: 391c b13e e4eb 713d 41dc 72be a828 953e
000003b0: e37a 75be 7d17 b03e 74d0 84be 5357 68be
000003c0: 8a0c 97bd 4f14 4b3e 76d7 353e db00 893e
000003d0: 3b4a 363f 1238 cfbe 460c afbe 3bf3 39be
000003e0: d23c 3dbe 9a11 72be 9ecb b63d 0d5d 723e
000003f0: 30e0 82bd 3d81 82be cc62 b63e 17e7 1d3e
-0.16639812 -0.1257394 -0.036629636 -0.036997665 0.663407 -0.09867384 -0.48188484 -0.49920824
0.07990297 -0.4010217 -0.065272346 0.21107908 -0.7735982 0.107749425 0.2440802 0.17689493
-0.32356128 -0.18993902 0.5666036 0.0055756588 0.18647406 0.28515536 -0.18444079 0.30430102
-0.072502896 0.06986992 0.0046198224 -0.5201476 -0.07779437 0.132747 -0.39569125 0.42579764
0.26135722 -0.31508145 0.1872069 -0.25347626 -0.15883146 0.2030199 -0.120665 0.19163501
-0.4214396 0.26443017 0.2698675 0.26509407 0.15509255 -0.38363865 0.060964085 -0.41954195
-0.20624663 -0.00552504 0.35462633 -0.33081016 0.17924955 0.15696825 -0.27478012 -0.65527284
0.26752385 0.26400056 -0.41818407 -0.07779384 -0.64310277 0.382425 -0.52871776 0.60694474
-0.0016484763 -0.21457948 0.3877492 -0.20109762 0.22077583 0.057435267 -0.37249765 0.39320344
0.26106897 -0.046938583 -0.41118276 0.33589482 0.15906179 -0.3547609 0.101792865 -0.5813858
0.2918445 -0.04466511 0.019570291 -0.69071174 -0.045426913 0.16867395 0.26177683 0.088326074
-0.19819319 0.0262895 0.18261364 -0.029317183 0.27169827 0.0438958 -0.2109624 0.19921124
0.29431632 -0.24666499 0.141348 -0.3294788 -0.22083586 -0.1812458 0.10866473 0.13670982
0.3636509 0.017907256 -0.33688393 0.11889388 -0.31208307 -0.08226921 0.34471068 -0.4040538
0.018169763 -0.04181722 0.041288618 -0.57169557 0.65307015 -0.2938612 -0.150745 -0.21854569
0.38657093 -0.36827493 -0.41783553 -0.3841651 0.07798483 -0.40347627 0.004869124 0.29042253
0.30859905 -0.25721112 0.084796615 0.082198374 0.11312528 0.23843612 0.08613381 -0.3319448
0.25088033 -0.3483505 -0.26176986 -0.26562935 -0.21768054 -0.009509546 0.027481727 0.18193379
-0.11104026 0.37302265 -0.23136847 -0.17405893 -0.06779145 0.14537412 0.17607042 -0.07435414
0.03629659 -0.42914787 0.29743108 0.29342583 0.31089637 -0.548073 -0.17198762 -0.15308057
0.04614175 0.14777476 0.159246 0.14132291 0.18566856 -0.062086303 -0.3134436 0.32417822
-0.074896455 -0.08381732 0.012447996 0.23410848 -0.08908244 -0.03457782 0.3693018 -0.25857535
0.30057693 0.08271672 0.19264063 -0.6613679 0.2767365 -0.18695986 0.28911725 -0.5801216
0.15376098 0.018671876 -0.46167845 0.38507375 0.3572805 0.19177265 -0.27041835 0.20052975
0.40845874 0.044095304 -0.4345743 -0.32603145 0.33701432 0.06648243 -0.6527436 -0.31645742
-0.86848885 0.29846746 0.25238463 0.3963103 0.19439065 0.08052673 -0.34571227 0.18851462
0.08254261 -0.32065445 0.13495085 -0.6226642 -0.21310663 0.30929813 0.0690819 0.076764904
-0.29418138 -0.15530568 0.5863086 -0.22733508 -0.30885008 -0.10403207 0.09970317 -0.4191596
-0.15809691 -0.12537044 -0.17243253 0.07561742 -0.21356839 0.29557386 -0.08240629 -0.38796738
0.34591845 0.059062853 -0.23716833 0.2913258 -0.23972659 0.3439292 -0.25940287 -0.22689562
-0.073754385 0.19831966 0.17757973 0.26758465 0.71207017 -0.40472466 -0.3418905 -0.18159191
-0.18480232 -0.23639527 0.08925556 0.23668309 -0.063904166 -0.25489226 0.3562225 0.15420185

FULLY_CONNECTED_139/bias:0 f4 [4]
00000000: d4cc 7abc 15ab 42bc 8979 dd3c 6b90 453c
-0.015307624 -0.011881609 0.027035492 0.012058358

CONV_2_156/kernel:0 f4 [75, 50, 8, 2]
00000000: 3116 df3b f24b 8e3c efc1 493c 77e3 7bbd
00000010: d4f3 48bd c051 283d 95a3 6bbc e1c0 53bd
00000020: 2c27 e7bc 1ff8 3cbd 8936 12bd d34b 833c
00000030: d592 8bb9 deff f4bc 2a77 21bc 91de 13bd
00000040: fcde fcbc b9f2 3e3c 456f 663d 75f1 b83c
00000050: cd3f 113d e9f3 75bd 6d52 8439 3373 203d
00000060: 3e1c 76bc 0755 563d aa2b ee3c 015b a4bc
00000070: 8fc6 3f3c e767 5b3d f909 22ba beb3 3e3d
00000080: 4197 15bc 7206 bc3c 834e a23c a7d5 f4bc
00000090: d406 d13c 8e2d 39bd 791e 0e3a 56b4 25bc
000000a0: 98aa e3bc 73d2 333c 2b3d 62bb c450 08bd
000000b0: 2283 cebb 91f2 a03b d5cf b33a 351a 823c
000000c0: a775 ac3c d251 a83c dc05 233d 65e1 d2bc
000000d0: 5330 af3c 3fbf 11bc 5001 5e3d f109 193b
000000e0: 71c5 f1bc 23f9 30bd a740 12bc a673 0ebc
000000f0: 5d70 a8ba 28b3 ac3c 2178 03bd ea6c 1f3d
00000100: 7872 f3bc 417e 49bd 700e 273d a3b3 0cbd
00000110: e211 76bc b890 023d ac86 f63c 0ab0 62bd
00000120: fc16 3ebc 8804 37bd 8079 4dbd 4a77 d7bc
00000130: d033 253c 3c9e 0cbd 3238 0abd 1437 35bd
00000140: 07f9 853c 5fda 76bd 4b53 013d 4470 373d
00000150: 0603 fbbc 18d1 b5bb 673d 1e3d 19ea da3c
00000160: 76d0 0cbd ee35 cabc d73d 59bd 9d76 b23c
00000170: 642a 413c d8e7 7bbd ce79 5abd 9a6f c23c
00000180: 93de a1bb 27c6 113d 5825 4fbb 6347 73bc
00000190: 5b7e 1a3d c129 9dbc 68aa e43c fc6f 20bd
000001a0: faef 1cbd d70e 1dbd f62e 203c 35f4 d3bc
000001b0: 526b 3ebc ad32 cbbc ffd1 0d3d 09a0 69bd
000001c0: 51d5 4ebd 27f4 1f3c c424 1f3a 8f3c b53c
000001d0: 3292 03bc 168a 10bc 8020 a5bc a31d 113d
000001e0: 122c 3abd 7439 1ebd d6a3 14bd 9a17 593c
000001f0: 5d3e 53bc 0562 1abd b811 27bd 0f36 253c
00000200: 428e f83c 5c12 2abd 3019 16bc 4533 013d
00000210: 8ea1 a43c c9e3 053d 399e 5fbd f5fb 3ebd
00000220: 8266 463c 7149 aa3b ea17 863c 9791 293c
00000230: 68ac 10bb 1d36 d23c c160 2dbd 2dc5 9a3b
00000240: 4d3c 6abd c9dc 03bc c6f4 ab3b af91 19bc
00000250: 9550 4cbc 6bff 87bd 74cc 0b3d da25 35bd
00000260: 3318 aebc fd22 0f3c 3263 203c 74d4 043d
00000270: e080 ecbc 096e 003c 97e1 89bd 5bf3 19bd
00000280: 1611 c2bc bc66 23bd d9a5 1b3c 4684 093d
00000290: 9eba 4cbc 40d3 fabc 2910 29bd 0a88 49bd
000002a0: 97ad 25bd 2b1e 383b 225e 83bd 68ab 4bbc
000002b0: 1b69 193d aeb9 4e3b f237 603d 7336 90bc
000002c0: 0ff1 97bb 2e86 22bc 397a 0cbd 6db9 043d
000002d0: 15bb 2abb 92e4 84bc d7e1 39bd 62f3 ffbb
000002e0: 764f 76bd 8016 59bd 89b8 74b9 0c5e ef3b
000002f0: 36de fabc cbdd cebb 553f c7bc 4042 c5bc
00000300: fcac a9bc 234a 943c d522 553c 1dcf 12bb
00000310: 7e89 043d bf7e d3bc 8d78 06bd 299c f7bc
00000320: 51d7 073c cd92 4b3d eece 01bd 3da0 583c
00000330: 1d0b ba3c 86cf 93bc 58a7 4b3d 7688 caba
00000340: 6f1e 0dbc 055f 1cbd e7a3 863c 1114 723c
00000350: baa0 acbc 548a ac3c 0914 63bd 5b7d 8cbd
00000360: 40f6 173c 287f 5abd 2e8b a13b a837 203d
00000370: 1d60 16bd 03bd 0bbd 6703 a9bc 12a5 66bd
00000380: d7c3 2d3c a8e7 f6bc e9f0 62bd 1e70 31bd
00000390: be99 d13c 2633 5fbd 06d9 78bd 8aec 4f3c
000003a0: 66c9 343c 723c 54bd aa63 4dbd 7426 23bd
000003b0: 9a66 f6bc 3c84 17bd 2735 c1bc a695 b23c
000003c0: 41ff 813c 7341 163d 7b5f 07bd d3ae 213d
000003d0: 6b3a 7dbb a0be 7d3c 0ee9 31bd 7135 e23b
000003e0: bf6f 65bd a346 af3b 8914 4cbd 7d5b 1fbd
000003f0: 359f 033d 5636 763c f64a 64bd 13a9 0d3d
0.0068080653 0.017370198 0.012314304 -0.061496224 -0.049060658 0.041093588 -0.014382263 -0.051697616
-0.02821692 -0.046135064 -0.03569654 0.016027367 -0.00026621544 -0.029907163 -0.009855071 -0.036100928
-0.030868046 0.011654549 0.05625846 0.022576073 0.035461236 -0.060047064 0.00025238414 0.039172363
-0.015021382 0.052327182 0.029073555 -0.020062925 0.011705055 0.053565886 -0.00061812956 0.046558134
-0.0091303 0.022952292 0.019812828 -0.029887034 0.025515951 -0.04520946 0.0005421411 -0.010113796
-0.027791306 0.010975468 -0.0034521322 -0.03328015 -0.0063022533 0.0049117287 0.0013718555 0.015881637
0.021052195 0.020546827 0.03980051 -0.025742242 0.021385347 -0.008895694 0.05420047 0.0023351873
-0.029513093 -0.043206345 -0.008926547 -0.008694565 -0.001285087 0.021081522 -0.032096986 0.038922228
-0.029717669 -0.04919267 0.040785253 -0.034351002 -0.015018912 0.031876296 0.030093513 -0.055343665
-0.01160216 -0.044682056 -0.0501647 -0.026301999 0.010083154 -0.03433059 -0.033745 -0.04424198
0.016354097 -0.06026685 0.031573575 0.0447848 -0.03064109 -0.0055486076 0.038632777 0.026722955
-0.03437849 -0.024683919 -0.05303749 0.021785075 0.011789892 -0.0615004 -0.05333882 0.023734856
-0.004939863 0.035589363 -0.0031607952 -0.014848563 0.03771816 -0.019184949 0.027913287 -0.039169297
-0.038314797 -0.03834423 0.009776821 -0.025873283 -0.011622267 -0.024804438 0.034624096 -0.057037387
-0.050496403 0.0097628 0.0006070847 0.022123603 -0.008030461 -0.008821985 -0.020157099 0.035428654
-0.045452185 -0.03862901 -0.03628906 0.013250256 -0.0128932865 -0.037691135 -0.040788382 0.010083689
0.030341271 -0.041521415 -0.009161279 0.031543035 0.020096567 0.032687936 -0.054594252 -0.046627004
0.012109401 0.005196743 0.016368825 0.010349653 -0.0022075418 0.025660569 -0.0423286 0.004723212
-0.057186414 -0.008048245 0.005247685 -0.009373113 -0.012470384 -0.06640514 0.03413053 -0.04422555
-0.021251773 0.008736369 0.009789275 0.032429174 -0.028870046 0.007838734 -0.06732481 -0.037585597
-0.023689788 -0.039892897 0.00949999 0.03357341 -0.012495665 -0.03061831 -0.041275177 -0.049202003
-0.04044875 0.0028094153 -0.06414439 -0.012431003 0.037453752 0.003154378 0.054740854 -0.017604088
-0.0046368907 -0.009919686 -0.034296248 0.0324034 -0.002605145 -0.016222272 -0.045381393 -0.007810996
-0.060134374 -0.052999973 -0.00023338398 0.0073049124 -0.030623537 -0.006313061 -0.024322191 -0.024079442
-0.020712368 0.018101757 0.013008793 -0.0022401281 0.032357685 -0.025817273 -0.03282981 -0.03022583
0.0082910815 0.049700547 -0.031691484 0.0132217975 0.022710377 -0.01804329 0.04972014 -0.0015452045
-0.008613213 -0.038176555 0.016435577 0.014775292 -0.021072734 0.021062054 -0.05543903 -0.06859847
0.009275019 -0.053343922 0.0049299216 0.039115578 -0.036712755 -0.034115802 -0.020631505 -0.056309767
0.010605774 -0.03013976 -0.05540553 -0.043319814 0.025586005 -0.05449214 -0.060753845 0.012690673
0.011034345 -0.051815458 -0.050143875 -0.039831594 -0.030078221 -0.036991343 -0.023584915 0.021799874
0.015868785 0.03668351 -0.03305004 0.039473366 -0.0038639556 0.015487343 -0.04343515 0.0069033434
-0.056014773 0.0053489967 -0.04982427 -0.03890561 0.032134254 0.015027603 -0.05573555 0.03458507

CONV_2_156/bias:0 f4 [75]
00000000: 6318 37bc 6ce8 3abd 2c97 ea3c 4e10 9a3d
00000010: 8ce9 3c3d 1051 d43a f789 e43c 6cd2 793d
00000020: 21e5 ba3c f0b4 03bc ba3b 0ebd 2db6 fa3c
00000030: 763a b83c 0e4c ba3c df96 76bc 2593 a93d
00000040: eefb 7a3d 142c 2d3c c197 6b3c 9130 c93c
00000050: 808f 453a 504f 28bc aa90 18bc 1af9 f8ba
00000060: 9b3f ec3c 6afb dbbb 3038 f3bc d171 fb3c
00000070: f904 e23b d2fd 92bb c6f1 633b cba9 0c3d
00000080: 2610 9a3c 7343 0c3b 178f 083c 6f00 0abc
00000090: 2d2f 3f3c 77ee 82bc 2e48 683d 9dc7 9c3c
000000a0: 19b8 1cbc e626 993c 8a2f 98bc 5b47 443d
000000b0: ad61 8d3b 008f f43c 039d 573c 8dac a0bc
000000c0: def6 5fbb da4d 92bb 5831 a73d 2627 41ba
000000d0: f2eb cd3c 4975 f23c 830c 613d 8fd6 363d
000000e0: c5d8 1ebc 7da3 bc3c dd47 b53a d63e 0c3c
000000f0: 18cf 12bc a9bc e9bb 1151 19bc fb70 6c3d
00000100: 7a60 94bc 634c 17bc b3d3 78bc b0ac 1ebc
00000110: 1e48 8d3c 97c5 5c3d 4e36 50bd 9e51 753c
00000120: dd66 963b 7fa4 a73c f604 77bc
-0.011175248 -0.04563181 0.028636537 0.07522641 0.046121165 0.0016198475 0.027897818 0.06099169
0.022814335 -0.008038744 -0.03472493 0.030604446 0.022488814 0.022741344 -0.015050619 0.08280019
0.061275415 0.010569591 0.014379443 0.024559291 0.0007536337 -0.010272816 -0.009311834 -0.0018995136
0.028838923 -0.0067133205 -0.029689878 0.03069392 0.0068975654 -0.004485824 0.003478156 0.034341615
0.018806528 0.0021402508 0.0083348965 -0.008422955 0.011668962 -0.01598285 0.05670946 0.019138152
-0.009565377 0.018695306 -0.018577356 0.047919612 0.0043146224 0.029853344 0.013159993 -0.019613529
-0.0034174244 -0.004464847 0.081637084 -0.00073681993 0.025136922 0.029596942 0.054943573 0.044638213
-0.009695237 0.023027176 0.0013830621 0.008559903 -0.008960508 -0.0071330857 -0.009357707 0.057724934
-0.01811241 -0.009234521 -0.015187192 -0.009684727 0.017246302 0.053899374 -0.05083304 0.014973072
0.004589899 0.02046418 -0.015076866

CONV_1_170/kernel:0 f4 [50, 1, 18, 2]
00000000: 673e b83d 32de 423c ceda b4bd 145b a9bc
00000010: 223a 0fbd 8a8d 633e 9c54 d9bc 2dbc a93d
00000020: bdbb 3bbd d5b6 5b3d af9b be3d d648 193d
00000030: 6aad 0a3d 0ae8 4dbd 2150 25bd d720 cc3c
00000040: b658 b23c a0b5 bb3d bdb1 e1bc a09a 7c3d
00000050: 6d9a 493d 7a06 07be c5a6 fbbd 9cb5 1fbd
00000060: 3f93 1d3e 97a7 1ebd 730f eb3d 7ebf d8bb
00000070: 9f52 1fbd 6875 e1bd 2ff2 273d 57ef debd
00000080: bdd1 43bd 1fa0 7bbc 7b1d ddbd ec10 91bd
00000090: 71ae 393e b108 59be e3ff dabc 9829 30bd
000000a0: 72fa 13bd 7546 593e 0764 073e 1a9b 28be
000000b0: 773c 953d 1cfc ccbd 792d 10bd 8e41 383d
000000c0: a16a 523c 5eef 90bc 06d6 9dbd 0b9c 373e
000000d0: 2659 393e 55ce 5a3e 9d94 c0bc bbcd b9bd
000000e0: 177c 85bb 697b 1ebe 30f9 cdbd 6b85 23bd
000000f0: 96f2 98ba bfb3 99bd 901b 4d3c debf c93c
00000100: 4af3 f8bd 4d3e 153d 5c72 6b3d 52d5 c43c
00000110: 479a acbd 2ce0 dfbd 1489 c53b 219f 89bc
00000120: 71d7 503e abfe dbbd c698 5cbc f47a bfbd
00000130: 4030 0dbe af73 1f3d 3e5b 0abe 3adc d73d
00000140: 8a7a ab3d 385f b33a d781 62bd b5f3 37bc
00000150: 3187 51bd d47c 3cbd 4e82 3cbd c298 313c
00000160: 1da2 83bd 95ce 7abe 94ed 983c 99c6 89bd
00000170: 5455 3fbb 83ea cd3d d074 b93c 7005 2f3d
00000180: d293 f5bc eb26 52be 42cc 063e e53a 823c
00000190: 6639 85bd 687e a5bd ba63 9a3b ae5f e03c
000001a0: efbe b03d eb83 b7bc 1cf7 2dbc 2e07 6ebd
000001b0: 0564 813c 3247 013d 56df 03bd 45a0 bd3d
000001c0: 79f1 84bd 48d2 b0bc 9ebd 9c3d efe4 923d
000001d0: 4d52 3bbe 6f5f 103d c825 3abe 83f9 1d3d
000001e0: 5398 e13c 510f 303e 526d f9bc d713 ba3d
000001f0: 6e3c edbd c8c2 653c 3f4e 01bd 16b1 2b3d
00000200: 4ec6 c83d 7fef a6bc 2e2b 6a3d 57fb 1fbd
00000210: d22f e4bd 9eb3 05bc 14c4 4a3d f4cd 023d
00000220: ddef 9b3c c920 40bd ac71 f0bc bf02 323c
00000230: 1a5a b0bd 6cd0 0abd ddf4 6dbd 22bf 013e
00000240: cc70 263e e6c2 b3bd ac2b e33d 5d86 9abe
00000250: af59 05bd a7d0 26bd 98a1 1e3d a1a9 183b
00000260: fc9a ee3d fc28 ccbd 8c1a 9cbc 0d8f 09be
00000270: 5b4a 813d be6b b5bd 5d3d d0bd 4223 0e3e
00000280: 6ce9 373e 7e67 86be 00b3 233e 5ee3 75bd
00000290: 1a95 89bd b453 86bd 220e fe3a ac4f 3dbd
000002a0: 53ab ff3d 0805 dcbc 069e a6bc 62a8 d53d
000002b0: ae92 6fbc e808 aa3c d890 913d d4cf 413d
000002c0: 1e14 c2bd 1b2a 7d3d b3e8 643d 85a4 a13d
000002d0: a85e 07be a14a 463e efe6 dbbd f889 48bd
000002e0: 215a 68bd b618 253d 8e49 013d 102e e9bd
000002f0: f378 643e f228 8abd de03 603d e393 c93d
00000300: 82a5 ae3d 831b bd3d e650 af3d 19a6 7ebd
00000310: df86 f03c ff1d 11be 301a 92bb 3ca8 e1bd
00000320: 077b b3bc 2155 193e 9730 0a3d 07b0 e03d
00000330: a671 d63d 42af 0ebe 1fa3 403e c561 9fbd
00000340: 41ac 09be 1e50 2bbe 1f20 aebc 49aa d6bd
00000350: 7343 d7bc 7cb2 423d f7f6 c8bc 7c13 d1bc
00000360: e826 1f3e e360 55be fdf1 4d3e 65f1 27be
00000370: 7091 ebbc c2af 913d ec8b 0e3d 7667 9fbd
00000380: 99eb bb3d 17d1 98bd 7e32 463d ab75 d43d
00000390: 9137 0fbd fb90 663d d400 ecbc 70ab c13d
000003a0: 3637 b7bb 1262 07bc 6639 2a3d bae1 f3bd
000003b0: 9941 d8bd a399 663d 811a 413d 0418 063e
000003c0: fea8 46bd 8675 e23d b59a b43d 8c0e 403c
000003d0: 6b29 09be 8c95 b3bc 2c50 cb3d 9b59 b1bd
000003e0: 513a 453d f919 5bbd a450 c53b 369d 3fbd
000003f0: ee63 6abe 0259 1e3e 5b8e 0bbe b12f 1d3e
0.08996277 0.011893796 -0.08830796 -0.020673312 -0.03496755 0.22221962 -0.026529603 0.08287845
-0.045833338 0.05364116 0.09307038 0.037422977 0.033856787 -0.050270118 -0.04035962 0.024918003
0.021770816 0.091655016 -0.027550573 0.0616709 0.049219538 -0.13186064 -0.12287668 -0.038991556
0.15388201 -0.038734045 0.11477556 -0.0066146245 -0.038897153 -0.110087216 0.04100245 -0.10885494
-0.047807444 -0.015358 -0.107966386 -0.07083306 0.1813295 -0.21194722 -0.026733344 -0.043008417
-0.036127515 0.21218283 0.13221751 -0.16465417 0.072869234 -0.100090235 -0.035199616 0.044984393
0.012842805 -0.017692264 -0.07706837 0.1793062 0.18100414 0.21367772 -0.023508364 -0.09072443
-0.0040736306 -0.15476765 -0.10057294 -0.03992216 -0.0011668976 -0.07504987 0.012518778 0.024627622
-0.12155779 0.036436368 0.05748211 0.0240275 -0.084278636 -0.10931429 0.006028304 -0.016799511
0.20394684 -0.107419334 -0.013464158 -0.09349623 -0.13787937 0.038928684 -0.13511369 0.10540052
0.08372982 0.0013684994 -0.055299606 -0.011227538 -0.05115432 -0.046017483 -0.046022706 0.010839643
-0.06427405 -0.24492867 0.018667974 -0.067273326 -0.0029195147 0.10054495 0.022638708 0.042729795
-0.029977713 -0.20522659 0.13163856 0.015897224 -0.065050885 -0.08080751 0.0047115954 0.027389374
0.08630168 -0.02240177 -0.0106179975 -0.058112316 0.015794763 0.031562038 -0.03219541 0.092590846
-0.0649137 -0.021584645 0.07653354 0.07172572 -0.18293114 0.035247263 -0.18178475 0.03856803
0.027538454 0.17193343 -0.030447636 0.090858154 -0.11583792 0.01402349 -0.031568762 0.04191693
0.098034486 -0.020377873 0.057170086 -0.039058056 -0.111419335 -0.0081605 0.0495034 0.031934693
0.019035274 -0.046906266 -0.029351078 0.0108649125 -0.086109355 -0.033890173 -0.058094848 0.12670568
0.16253966 -0.08777408 0.11092314 -0.30180636 -0.032556232 -0.04072633 0.038728327 0.0023294466
0.11650655 -0.09968755 -0.019055627 -0.13433476 0.0631301 -0.08858441 -0.10167954 0.13880637
0.17960137 -0.26250833 0.15986252 -0.060031287 -0.06717892 -0.06558934 0.0019382874 -0.04621856
0.124838494 -0.026857868 -0.020339023 0.10432507 -0.0146223735 0.0207562 0.07107705 0.04731734
-0.09476493 0.061807733 0.05588598 0.07892708 -0.13219702 0.19364406 -0.107374065 -0.048959702
-0.05672658 0.04030677 0.031564288 -0.11385739 0.22311763 -0.06746091 0.054691188 0.0984266
0.08527662 0.09233763 0.08560352 -0.06217012 0.029361187 -0.14171599 -0.004458688 -0.11018416
-0.02190925 0.1497388 0.033737745 0.109710746 0.104708955 -0.13934043 0.18812226 -0.0778232
-0.13444616 -0.16729781 -0.02125555 -0.10481698 -0.02627728 0.047533497 -0.024531825 -0.025521986
0.15542185 -0.2083774 0.20111842 -0.16400678 -0.028755873 0.07113601 0.03480141 -0.077834055
0.09175796 -0.07461756 0.048387997 0.10374006 -0.0349651 0.056290608 -0.028808989 0.09456527
-0.0055912985 -0.008263128 0.041558646 -0.11908288 -0.10559387 0.056298863 0.047144417 0.13095099
-0.048501007 0.11057572 0.088185705 0.011722218 -0.13394706 -0.021921895 0.09927401 -0.08659669
0.048151318 -0.053491566 0.006021576 -0.046780787 -0.22889683 0.15463641 -0.13628523 0.15350224

CONV_1_170/bias:0 f4 [50]
00000000: b68a 2bbd 7eda 833c e2b3 053e 4b67 413d
00000010: c7bd ee3c 8db4 d9bc 05ad 13bd 1f5a e4bc
00000020: 03d8 ad3d 1781 56bc 936b 133d 06fd 833c
00000030: a938 c93c 2fe1 7dbd 3ee4 383c e969 60bd
00000040: e3ad ef3c 6f65 c83b df02 123e 37be d53c
00000050: 46a2 e8bc b586 eb3c f04c 8abd 0b08 393d
00000060: 78c0 68bd accf 3f3d 3be8 9abb 6a51 743c
00000070: 77ee a83c d9d0 b2bc 0a13 20bc 9a04 8e3c
00000080: 5814 8c3b cae5 41bb eaa5 ee3c 799a ccbb
00000090: 6b16 023e bfc0 74bc 2ce9 a03d 8130 3d3b
000000a0: 9afb 053d 7a75 e13c cede 953d a5d5 1fbd
000000b0: 4b70 483c 3bf2 9fbc 3471 babb 7e10 0f3d
000000c0: 0672 ec3b 574b 51bd
-0.041880332 0.016095396 0.13056901 0.04721765 0.029143227 -0.026575351 -0.036053676 -0.027875004
0.084884666 -0.013092301 0.035991263 0.016111862 0.02456315 -0.06198233 0.011284886 -0.054788504
0.02925772 0.0061156075 0.14258908 0.026091678 -0.02839769 0.028750757 -0.06752956 0.045173686
-0.056824178 0.04682891 -0.004727391 0.014911989 0.020621521 -0.021828102 -0.009770164 0.017336179
0.004274886 -0.0029586428 0.029131848 -0.0062440005 0.12703864 -0.014938532 0.07856974 0.0028868022
0.03271065 0.027521838 0.07317887 -0.039022107 0.012233804 -0.019524684 -0.0056897644 0.034927838
0.007215741 -0.05109724
