QuarantineSports/Assets/Our_Models/model_2.onnx (onnx, 25465 bytes, 4 tensors)

lstm_model_7/dense_35/BiasAdd/ReadVariableOp/resource:0 f4 [4]
000000 e2 4b 4e bf 83 5d 30 bc aa 6e 32 3f 02 91 d7 3c
       -0.8058454 -0.010764482 0.6970011 0.026314262

lstm_model_7/dense_35/MatMul/ReadVariableOp/resource:0 f4 [75, 4]
000000 1b 45 69 3f dd f8 af c0 0e af 58 c0 28 eb 12 40
       0.9112107 -5.499129 -3.3856845 2.2956028
000010 ff a8 43 bf 99 7c 19 c0 93 23 23 bf 1d c9 cf bf
       -0.7642974 -2.3982298 -0.63726157 -1.623325
000020 00 6a 5c 3f 22 9d 36 c0 75 a1 18 bf 61 93 5b bf
       0.86099243 -2.8533406 -0.59621364 -0.8577176
000030 24 d1 52 be 8e b3 1f bd 22 f7 8e 3d 72 e3 a0 be
       -0.20587593 -0.038989596 0.069807306 -0.31423527
000040 c2 45 24 c0 f0 df 84 be 9f cc f1 3e 7a 49 5a 3d
       -2.5667577 -0.259521 0.47226426 0.05329273
000050 e4 22 2b 3f 20 f4 56 bf 1e c8 f8 bf 58 ce 28 c0
       0.66850114 -0.83966255 -1.9436071 -2.6375942
000060 d2 39 47 bf f7 91 aa be 79 ce 65 3e 29 05 6b c0
       -0.778226 -0.33314487 0.22442044 -3.67219
000070 fb 23 68 c0 53 4e 6e 3e c0 57 a2 c0 7d a2 d8 3e
       -3.627196 0.23272066 -5.0732117 0.4231147
000080 9b ec f7 3f d6 44 8a bf 07 ef ff bf 0b a6 68 bf
       1.9369081 -1.0802257 -1.999482 -0.9087836
000090 2c 88 0d be d1 db 60 3e 48 23 e8 bd 69 43 53 3e
       -0.13821477 0.21958853 -0.11334854 0.20631184
0000a0 9c 19 4d 3f a5 43 3f c0 2a 3b 0b 3d 72 ab 96 c0
       0.801172 -2.9885037 0.03399197 -4.7084284
0000b0 83 2a bb bf 56 ff 19 3e cb c1 8b c0 68 47 b2 3e
       -1.4622349 0.15038809 -4.3674064 0.34820104
0000c0 9f 37 17 bf 78 a7 de be 0d f1 68 c0 00 b1 7c c0
       -0.59069246 -0.43487144 -3.6397126 -3.9483032
0000d0 96 01 37 c0 f7 34 86 be b6 42 a9 bf 04 53 22 bf
       -2.8594718 -0.26212284 -1.3223484 -0.6340792
0000e0 f4 a9 e5 3f df c5 0c c0 43 fb 30 bf 2f 3c ad be
       1.794249 -2.199577 -0.69133395 -0.3383498
0000f0 59 51 2e bf f0 09 4f bf e8 39 37 c0 4b de 22 bd
       -0.68092877 -0.8087454 -2.8629093 -0.039762776
000100 78 ca 86 3e 68 5b 10 c0 76 4d 11 c0 08 81 8f bc
       0.26326346 -2.255579 -2.2703528 -0.017517582
000110 50 c6 8e bd 65 ca 6a bd e4 f4 99 3d fc 1b 02 be
       -0.06971419 -0.057321925 0.07517412 -0.12705988
000120 09 79 6d 3f 8e 35 30 bf ff da b8 bf 96 b9 1f c0
       0.9276281 -0.6883172 -1.4441832 -2.4957023
000130 92 84 0d c0 ea 7b 15 3f 1a cf 53 c0 4d 22 45 bd
       -2.2112164 0.583922 -3.3095155 -0.048128415
000140 cb c7 3b c0 cd 36 0d 3f 5e b4 9c 3f e0 c1 03 3f
       -2.9340694 0.55161744 1.2242544 0.51467705
000150 d9 47 60 3f d8 1d dd be f8 63 3e 3e c6 2c f1 bf
       0.8760963 -0.4318683 0.18592823 -1.8841789
000160 45 73 f5 bf 4a 66 08 3e 04 e4 d4 be b4 41 45 3f
       -1.9175802 0.1332027 -0.41580212 0.7705338
000170 ae 81 52 be 11 6a 94 3d 72 4e c4 3d 56 28 4b bd
       -0.20557281 0.07246793 0.09585275 -0.049599014
000180 d3 3d e5 bf 77 c5 90 3e 53 24 87 c0 f1 b8 b8 be
       -1.7909492 0.28275654 -4.223184 -0.360786
000190 79 22 9b bf 71 70 54 c0 49 b3 af bf 03 43 36 40
       -1.2119895 -3.3193629 -1.3726588 2.84784
0001a0 2b 03 80 be b0 89 5f be 64 e0 66 3e 32 6a 3c be
       -0.25002417 -0.21829867 0.22546536 -0.18399885
0001b0 b6 59 28 bf c5 30 58 3f 1c 4d af bf 29 39 a0 c0
       -0.6576189 0.84449416 -1.3695407 -5.0069776
0001c0 5b 86 a0 bf 09 02 43 bf c0 70 db bf b6 44 0d 3f
       -1.2541002 -0.7617498 -1.7143784 0.5518297
0001d0 49 cd 98 3d 6a 1e 0f be 44 f2 34 c0 c2 c1 2b bf
       0.0746103 -0.13976446 -2.8272867 -0.67092526
0001e0 45 dd c6 be e9 73 28 3e 98 59 b1 bf b9 9f 05 c0
       -0.3884069 0.16450466 -1.3855467 -2.0878737
0001f0 4e df c3 3f 89 e3 fa be ab 34 14 c0 36 97 ae be
       1.5302522 -0.4900172 -2.3157146 -0.3409974
000200 5e 39 93 3f b9 91 5a c0 42 49 ca 3e 60 af 3e bf
       1.1501882 -3.4151442 0.39509016 -0.7448635
000210 98 14 01 c0 c0 ae 3b be de 13 a3 c0 be 11 a8 bf
       -2.016882 -0.1832838 -5.096175 -1.3130414
000220 ea 0b f9 bf 0d cc 6e 3e b7 b7 6f c0 1d 37 e3 3d
       -1.9456761 0.23320027 -3.745588 0.110944964
000230 31 6c 09 c0 b5 99 ba 3e b7 3b 4a 3e 07 b7 3c c0
       -2.1472285 0.36445394 0.19749342 -2.948671
000240 57 ba 1d be b7 c6 db bd 1b 7f 21 be f5 2a ce 3d
       -0.15403114 -0.10731261 -0.15771143 0.10066787
000250 2e 72 0c 40 f9 69 15 bf f0 ef b8 bf 19 2c 89 be
       2.194469 -0.58364826 -1.4448223 -0.26791456
000260 e6 19 9c 3f 61 80 bd 3f 29 bc 52 c0 8e 52 18 c0
       1.2195404 1.4804803 -3.2927344 -2.3800387
000270 dd 2b 6b be d2 4f 8a 3e cb 0f 95 3e e2 b2 0c c0
       -0.22965951 0.27014023 0.29113612 -2.1984181
000280 d1 b1 2c be 7a 93 50 3e 9c 0c 21 3e 38 be 7e be
       -0.16864707 0.20368758 0.15727466 -0.2487725
000290 2b 57 e9 bf 6e 99 40 3e 33 a7 41 c0 f1 11 4d 3f
       -1.8229727 0.18808529 -3.02583 0.801055
0002a0 3a b3 46 3f 8f 30 30 c0 20 34 0a 3d 1a f8 e5 c0
       0.7761723 -2.7529638 0.033741117 -7.186536
0002b0 87 96 f3 3e d0 48 c9 bf 4e b4 8c be 51 42 b6 bf
       0.4757578 -1.5725346 -0.27481312 -1.4238988
0002c0 f0 8b 5a c0 e9 91 27 3e c1 4f a8 bf ab 9b a6 bd
       -3.414791 0.16364254 -1.3149339 -0.0813516
0002d0 a2 be fc 3e 93 4b 20 c0 96 ed b8 3e d7 4c 03 c1
       0.4936419 -2.5046127 0.36118764 -8.20626
0002e0 44 52 56 40 64 a0 1a c0 03 2a 09 bf 15 45 ba bf
       3.348771 -2.4160395 -0.5357973 -1.4552332
0002f0 ac ac 18 40 3c 7e b8 c0 31 34 18 c0 f6 81 59 c0
       2.385539 -5.7654095 -2.3781855 -3.3985572
000300 44 a3 81 3f 4e 18 d5 bf 63 3d 95 bf b8 ce 35 c0
       1.012795 -1.6648042 -1.1659359 -2.840742
000310 9a ac 66 3f d7 b4 22 c0 b0 6a 64 c0 4d 76 5b be
       0.9010712 -2.5422876 -3.5690117 -0.21431847
000320 72 da 66 be 30 91 14 c0 d1 d4 5d 3f 69 f9 b5 c0
       -0.22544268 -2.3213615 0.8665286 -5.6866956
000330 6d 94 1f be 2e ad f7 bd 68 c2 8f be 7e 3f 4f 3c
       -0.15583964 -0.12093578 -0.28078008 0.012649415
000340 34 51 e1 3d 6e db c9 3d 36 42 ae 3d 7a f8 ad 3d
       0.110018164 0.09856306 0.085087225 0.08494659
000350 05 9f 1e 3f 72 24 0a be f9 c7 6d c0 7b 22 16 3f
       0.61961395 -0.13490465 -3.7153304 0.58646363
000360 d4 79 30 bf 4a 39 22 c0 20 af 87 c0 f0 56 d8 3f
       -0.68935895 -2.5347466 -4.2401276 1.6901531
000370 6b fe 22 be ff 10 ca 3e 06 5c 29 3e fd a1 1a c0
       -0.15917365 0.39466092 0.1653901 -2.416137
000380 f3 f2 91 c0 ce 82 43 bd 8b 5b 2d c0 ca 77 9b 3e
       -4.560907 -0.047732167 -2.7087123 0.3036483
000390 99 68 19 3f fe dd 16 bf b6 cb 20 c0 a7 d5 f8 c0
       0.5992523 -0.58932483 -2.5124335 -7.7760806
0003a0 a2 6b 02 40 33 8a 5e bf 2f 02 c4 bf d7 4f 18 bf
       2.0378194 -0.86929625 -1.5313166 -0.59496826
0003b0 06 0b c9 bb 3e 07 d2 bd 23 a2 02 3e 47 96 14 3e
       -0.0061353473 -0.102552876 0.12757163 0.14510451
0003c0 97 63 63 bf 7e a3 8f bf c5 ad 2f 3f fd ae d5 bf
       -0.8882384 -1.1221769 0.68624526 -1.6694027
0003d0 0d 43 f0 3e 1b 3b d1 be 42 e2 ff bf 5f 0e 10 3e
       0.46926156 -0.40865406 -1.9990923 0.14067982
0003e0 39 f8 3e be 1a ed 39 be d9 23 a3 3d e0 f6 b1 bc
       -0.18649377 -0.18156853 0.07965822 -0.021724164
0003f0 0c c9 b1 bf 21 a1 05 be f5 7a 3f bf 92 a5 6d 3e
       -1.388948 -0.13049747 -0.7479699 0.23207691

lstm_model_7/dense_34/BiasAdd/ReadVariableOp/resource:0 f4 [75]
000000 75 62 24 bf 83 0a d0 be 91 e6 fb bd 53 a9 61 bd
       -0.64212734 -0.4063302 -0.122998364 -0.05509312
000010 10 42 69 bb d6 29 58 bd de 2c e9 bd ea 76 a2 bd
       -0.0035592355 -0.052774273 -0.11385511 -0.07932837
000020 1c 39 b2 be f8 6d 21 bd 96 c5 cc be df 7e f6 bd
       -0.34809196 -0.039411515 -0.39994496 -0.120359175
000030 21 fe b9 be f5 62 01 bf 4a 1e 05 bf 15 c7 1b bf
       -0.36326697 -0.5054162 -0.5199934 -0.6085065
000040 24 e9 88 bf 4e a7 bc bd 69 00 a9 bf 95 5c e1 3e
       -1.0696149 -0.09211598 -1.320325 0.44015947
000050 7e e0 8d 3d 4e 4e c7 bd c7 c3 f3 3e 84 ae 7d bd
       0.06927584 -0.09731732 0.47610304 -0.06193401
000060 5b 0a 65 be e4 22 b3 be e3 a6 78 bd a1 32 83 bf
       -0.22367232 -0.34987557 -0.06070603 -1.0249826
000070 c9 5f 58 bf 36 7b ca be 05 48 1d bf d4 2e a8 be
       -0.84521157 -0.39547127 -0.6143802 -0.32848227
000080 ae 24 9b be 24 7b f0 bc 5a 59 e1 be 95 e0 26 bf
       -0.30301422 -0.029355593 -0.44013482 -0.65186435
000090 17 9a 51 bd 34 79 c3 bd 46 64 c7 bd 38 35 c0 be
       -0.051172342 -0.09544602 -0.097359225 -0.37540603
0000a0 fa 71 9c bd 12 2f 24 3e 68 f6 c1 3d 60 42 c9 be
       -0.07638927 0.16033581 0.094708264 -0.39308453
0000b0 40 27 14 bf 95 0a 62 be 27 3f 0e bf 84 d2 92 be
       -0.5787239 -0.22074349 -0.5556511 -0.28676236
0000c0 c1 c0 48 bf 36 af 18 bf 72 3f 03 bf ba bb ee bd
       -0.7841912 -0.5964235 -0.51268685 -0.116569
0000d0 47 3c a7 bd 0b a4 b6 be 28 5d 6c bc 09 83 24 bf
       -0.08165794 -0.3567203 -0.014426507 -0.64262444
0000e0 9a ed c0 be 97 33 c1 be 1b d4 fb be e4 bf 17 be
       -0.37681276 -0.37734672 -0.4918526 -0.14819294
0000f0 8b 73 1d bf 1e f4 2f bf 0e 35 7f bd b7 54 c1 be
       -0.6150443 -0.6873187 -0.062306456 -0.37759945
000100 8b 10 41 bf 5e 7a b4 be 13 06 c9 be 2d 3e 21 bf
       -0.7541587 -0.3524961 -0.39262447 -0.629855
000110 24 06 02 bf 1e 85 80 bf 4c c5 68 bd f6 09 c3 bd
       -0.5079062 -1.0040624 -0.056828782 -0.09523384
000120 97 0d e7 be e4 ef 8a bf 7c 0c b0 be
       -0.45127556 -1.0854459 -0.34384525

lstm_model_7/dense_34/MatMul/ReadVariableOp/resource:0 f4 [75, 75]
000000 2b 41 86 be ac 9f 29 bf ec dc 28 bf 0d 86 d8 bd
       -0.26221594 -0.66259265 -0.659621 -0.10572443
000010 4b 40 1f be 64 ea e7 be 97 ec 85 3e 35 77 16 be
       -0.1555187 -0.45296013 0.26157066 -0.14693911
000020 fe 3d c5 3e 04 57 9d bd 58 03 07 bf 61 d6 75 bf
       0.3852386 -0.076826125 -0.5273948 -0.9603024
000030 f2 d2 25 3e 01 41 ce 3e 4d 8f 7b 3f 40 99 13 bf
       0.1619375 0.4028397 0.98265535 -0.57655716
000040 ea 38 47 be c4 fc e8 3d 41 79 32 be 69 cf 5f bf
       -0.19455305 0.11376336 -0.17429067 -0.8742586
000050 e6 4a 95 bf 77 4b ba be 50 be 80 bf 7e ff f9 bc
       -1.1663482 -0.363857 -1.0058079 -0.030517336
000060 0b f4 d3 bf 3f 49 c1 bf 04 3d b3 bd 3b 09 0c 3e
       -1.6558851 -1.5100478 -0.08751872 0.13675396
000070 e0 cc 0d bf d5 05 35 be 80 28 28 be a2 31 2b bf
       -0.5539074 -0.17678006 -0.164217 -0.6687261
000080 0d b7 78 3e db 95 a7 bf 22 31 93 bf 40 50 95 3f
       0.24288578 -1.3092607 -1.1499369 1.1665115
000090 36 11 3c bd 1d 88 14 bf 96 25 54 bf 1a 72 ee 3d
       -0.04591485 -0.5802019 -0.8286985 0.11642857
0000a0 3c e0 ff bc 22 af ec be e3 a9 82 be 82 8f 7c 3e
       -0.031234853 -0.46227366 -0.25520238 0.24664119
0000b0 a4 f7 05 be 2c 85 8e be c2 62 b9 3e ae a2 19 bf
       -0.13082749 -0.27835977 0.3620816 -0.60013855
0000c0 62 f1 c2 be 48 8b 52 bf dd 24 bd 3e 62 e3 b6 bc
       -0.38074785 -0.82243776 0.36942187 -0.022325221
0000d0 90 51 56 3d 48 0e d2 3e ea e8 27 3f 26 8f 03 3f
       0.052323878 0.4102652 0.65589774 0.513903
0000e0 3c 64 14 3f c8 71 89 be 29 f2 59 3f 05 a6 1b be
       0.57965446 -0.2684462 0.8513513 -0.1520005
0000f0 6c 53 e9 be dc 92 33 be c0 ea f4 3c 7b f0 22 3f
       -0.45571458 -0.17536491 0.029897094 0.63648194
000100 25 78 ea be 4c a9 57 be dc eb ad 3e 29 66 6d bf
       -0.45794788 -0.21060675 0.3396901 -0.9273401
000110 32 28 81 bf ae ac 5f bf c9 6e 16 3d 3e 4d 3e be
       -1.0090392 -0.87372863 0.036726747 -0.18584153
000120 7b e0 7a 3f 51 df 12 bf 1b e8 3c 3f 1e 6f 2a 3e
       0.9799878 -0.57372004 0.73791665 0.1664395
000130 58 8c 1c bf bb 7b 4c bf 3a 01 b3 3d 47 2c 3d c0
       -0.6115165 -0.798763 0.08740468 -2.9558275
000140 a3 d3 26 bf f2 d3 5f bf 92 c9 ba 3d 61 58 32 3f
       -0.6516668 -0.8743278 0.09120478 0.69666106
000150 4c e3 44 3d 9a ca 0f c0 e8 a5 b9 bd f5 2b c7 be
       0.04806833 -2.2467408 -0.09064847 -0.38900724
000160 9e 09 1f 3f c1 2f dd be e9 63 b3 3f d7 45 9c be
       0.6212405 -0.43200496 1.4014865 -0.30522034
000170 c5 31 b2 3c ef 22 43 bf 40 b1 ba 3e 69 89 2c 3f
       0.021752248 -0.7622518 0.36463356 0.6739717
000180 3a c7 d8 3d 1a 70 3e be 10 d9 67 bd b6 f8 47 bf
       0.105848745 -0.18597451 -0.05660349 -0.7811388
000190 2e 08 31 bd df 5c d2 bc e9 3f 70 bf ad de 70 3f
       -0.04322069 -0.02567905 -0.9384752 0.94089776
0001a0 b4 63 76 be 16 b1 ae be 92 e1 2b 3f de 45 72 3c
       -0.24061471 -0.3411948 0.6714107 0.014787165
0001b0 6a a7 b7 bf 3c 0b b5 3e 39 48 a0 bf d2 e3 0f 3d
       -1.4347966 0.35360134 -1.2522041 0.035129376
0001c0 51 cd 0d 3f 5b fb 3b 3f 75 92 78 bf 95 11 29 3d
       0.5539141 0.73430413 -0.97098476 0.041276533
0001d0 03 79 c5 3f 49 f4 12 bf cb 5c 3e bf d6 44 84 bf
       1.5427555 -0.57404 -0.7436034 -1.0333507
0001e0 5b cc 82 be 3b e7 2c bf cf 67 96 bf 41 fb f7 3e
       -0.25546536 -0.6754033 -1.175043 0.4843388
0001f0 38 4a 1f 3e 3a cc bf 3d 97 f1 ef bd a4 59 69 3d
       0.15555656 0.09365125 -0.117160015 0.056970254
000200 7d 19 2a 3f 83 58 47 3f 2a 73 33 bf e9 a9 ce 3e
       0.6644514 0.77869433 -0.700976 0.40364006
000210 88 69 4a bf fa 7f b4 3f 69 ff 00 3e ee 4c 0a bf
       -0.7906728 1.4101555 0.12597431 -0.54023635
000220 8a b8 23 3f 4a 1d 10 3e 8d ab a5 be 60 ec 39 bf
       0.6395346 0.14073673 -0.32357445 -0.72626305
000230 18 80 72 bf db cf fc 3c c1 07 a0 3b 52 c6 d6 bf
       -0.94726706 0.030860832 0.004883737 -1.6779273
000240 e4 9b 57 bf 55 bd 55 be 76 dd 51 3d a3 17 dc be
       -0.84222245 -0.20873006 0.051236592 -0.42986783
000250 47 e6 ca be 6f a3 69 bf b7 ab b7 bd c5 68 53 bf
       -0.39628813 -0.91265005 -0.08968299 -0.8258174
000260 1b da 48 bf c0 16 e7 bd 47 18 7c bd 49 42 86 3e
       -0.784578 -0.11283636 -0.06154659 0.26222447
000270 6f b7 34 be c8 c3 0e bf 1d 1d d9 be b6 94 e6 bd
       -0.176481 -0.5576749 -0.42405024 -0.11258833
000280 6e d2 86 bf e4 26 9d be 71 c3 9a bf 27 97 ba 3f
       -1.0532968 -0.30693734 -1.2090894 1.4577378
000290 e0 6e 38 bf cc 43 eb bd 51 52 bb bc 78 fe 32 be
       -0.7204418 -0.114875406 -0.0228664 -0.17479885
0002a0 27 bc 57 bf 5c 41 9c 3e 11 9a 01 3d e7 b6 4a 3f
       -0.8427147 0.30518615 0.03164107 0.79185337
0002b0 76 de da 3e ee 8d 3d be 59 cb de bf ec 80 91 bf
       0.4274785 -0.18511173 -1.7405807 -1.1367469
0002c0 14 1c f3 3d 5f 4a 75 be 05 9f 38 3e 80 7c 85 be
       0.1187059 -0.23954152 0.18029411 -0.26071548
0002d0 98 42 9f 3f f3 4b 15 bf 59 58 b3 bf 2a 98 96 bf
       1.2442198 -0.58319014 -1.4011337 -1.1765187
0002e0 2e 9f 32 be fc 89 7e 3d a5 16 04 be 42 4a 10 be
       -0.17443535 0.06214331 -0.12899263 -0.14090827
0002f0 05 b7 8f bf e4 88 40 3e da 60 f8 bd 04 84 b0 be
       -1.1227728 0.1880222 -0.12127848 -0.3447572
000300 b2 37 2f 3f c4 6d 23 be 93 60 9b be db 03 b7 3e
       0.6844436 -0.15959841 -0.30347118 0.3574513
000310 ba 2f 0d bf c2 a5 78 be cc c2 58 3f bc c2 06 bf
       -0.5515095 -0.24281982 0.84672236 -0.5264089
000320 82 e5 1d be 04 7d a2 bd 6a e7 95 bd 78 5c 39 bf
       -0.15419582 -0.07934001 -0.07319529 -0.7240672
000330 5d bf 52 3f e5 dc 6b 3e 65 1d 4d bf 59 e6 3b bd
       0.8232325 0.23033483 -0.8012298 -0.045873974
000340 3f 89 4f bc a8 1b 7a be 62 a4 d2 be 45 a6 10 be
       -0.012666999 -0.24424613 -0.4114104 -0.14125927
000350 cc cb e8 bd b0 8d f9 3e 32 4a cd be 11 51 3b 3e
       -0.11366996 0.4874091 -0.4009567 0.18292643
000360 f3 cd e9 3e 94 9e ad bd b0 4f c2 be 1e 23 e6 be
       0.4566494 -0.08477512 -0.37951422 -0.44948667
000370 92 aa a1 3d 14 db 58 be 1b bf 41 3f a7 92 91 bf
       0.07893862 -0.21177322 0.7568223 -1.137288
000380 05 d6 5b be 1b aa 9f 3e b6 fa d0 be c3 74 9d be
       -0.2146836 0.31184468 -0.40816277 -0.30753145
000390 d0 ad 2d be 8c 51 2b bf 66 17 f6 3e cd bf cb 3f
       -0.16960835 -0.66921306 0.48064727 1.5917908
0003a0 3c 1d 26 bf 15 4d bd bc 82 9b 2e be c0 e2 bd be
       -0.6488836 -0.023108045 -0.17051509 -0.3708706
0003b0 dd f7 a9 bd 54 6e 62 3f b8 59 bb 3e 7b 5c be 3e
       -0.08299229 0.884496 0.36591887 0.37179932
0003c0 a3 8b 01 bf 97 48 b4 be ae 1b 14 be 6b 0e 4e 3f
       -0.50603694 -0.35211632 -0.14463684 0.8049075
0003d0 61 8e db be 45 0c 83 bf f6 25 5a bd 6f f2 c6 bf
       -0.42882064 -1.0238119 -0.05325886 -1.5542735
0003e0 11 c3 dc bd 68 2f d6 3e e1 2e d7 bc 77 bc 03 3e
       -0.107793935 0.41833043 -0.02626747 0.12864862
0003f0 57 a0 e3 3e 21 6d 08 bf d8 bb 14 bf 1a 11 ab bc
       0.44458267 -0.5329152 -0.58099127 -0.020882178
